barcode/camera_params.npz (npz, 2126 bytes, 4 tensors)

Intrinsic f8 [3, 3]
721.880593626659 0.0 513.9787885957105 0.0 732.5224031606285 293.0950267065638 0.0 0.0
1.0
00000000: 88dc ab74 0b8f 8640 0000 0000 0000 0000
00000010: 3282 1d8f d40f 8040 0000 0000 0000 0000
00000020: d051 b5e1 2de4 8640 024f b93a 8551 7240
00000030: 0000 0000 0000 0000 0000 0000 0000 0000
00000040: 0000 0000 0000 f03f

Distortion f8 [1, 5]
0.008780876825025189 -0.12596060464033024 -0.0014374851727506903 0.0014295763857495075 0.1840213403820352
00000000: d578 5956 b5fb 813f 8dde c122 7a1f c0bf
00000010: 7d7a 8cf3 3f8d 57bf 923c bbf4 136c 573f
00000020: 877c 5ae3 028e c73f

RotationVectors f8 [20, 3, 1]
-0.007629686654364984 -0.027325526334973125 0.012858044672315782 -0.1550843255089046 -0.026670057816932612 -0.06458595672569298 0.11935020618668983 -0.021360906020527023
0.039290070636115906 0.029491838678299867 -0.0932147087889562 -0.03237968881286147 -0.006029179410760269 -0.11478400582607291 0.08376697183929423 -0.010407276500530123
-0.1987098922654483 0.01872504946071665 0.16621574818934176 0.03421836596225888 -0.03452345861364386 -0.011853479909364787 -0.19105946034771676 0.02433435226020284
0.05198659813758072 -0.031055002891860334 -0.01112689215556118 0.25937050704141934 -0.03887335950305517 -0.09250834552432927 0.2095310082998753 -0.035732308375816
-0.07950311006314599 -0.008665924970824235 -0.030594262898149028 -0.22730720762355178 0.08538251716729439 -0.13335514800094384 -0.03188043765787924 0.0003017888939469942
-0.04021954106873816 -0.05805877619352216 0.05017906743131568 -0.03762806913785596 -0.017061991706531516 -0.013961478855056796 -0.06946952388313231 0.06880439552745417
-0.006561993090178946 -0.06526065033660217 0.02023281166621882 0.05759775304481707 -0.026880675286069765 -0.03670595033120049 -0.01613543511972399 -0.11774070733662666
-0.07664624447134383 0.11466741614575263 -0.03875319094867604 -0.18699719799635237
00000000: ca2f 8c6a 4e40 7fbf e99b d107 39fb 9bbf
00000010: 4665 dd8a 5155 8a3f 5c6b 179d cdd9 c3bf
00000020: d3b3 6c48 654f 9bbf deef ea8b b488 b0bf
00000030: 83ba 5730 bc8d be3f 6c99 1523 a2df 95bf
00000040: 8219 e100 d41d a43f 8423 7dca 1b33 9e3f
00000050: 0736 c14d ebdc b7bf f104 0311 1294 a0bf
00000060: d041 4186 0db2 78bf ad79 200f 7c62 bdbf
00000070: 85e3 8894 c071 b53f 9780 ae01 6950 85bf
00000080: 03fd 5564 536f c9bf 67f4 32cc a82c 933f
00000090: 9ed5 46c1 8e46 c53f 0bff 75d5 1185 a13f
000000a0: 677d 610b 0fad a1bf 75a5 6f24 a346 88bf
000000b0: 0a76 e4ea a274 c8bf f9f5 81bc 1aeb 983f
000000c0: 8893 a9c5 fc9d aa3f f8de 30f7 e1cc 9fbf
000000d0: 8364 502f b2c9 86bf a38c 52c1 8699 d03f
000000e0: d3a6 807f 35e7 a3bf e651 a27e a0ae b7bf
000000f0: d6ab 127e e9d1 ca3f 93f9 c44f 814b a2bf
00000100: bdc8 a6d9 505a b4bf 5ad8 b6c2 70bf 81bf
00000110: bd00 5f3a 1a54 9fbf beb1 710f 6718 cdbf
00000120: 6039 e2ee a0db b53f e069 b50f c811 c1bf
00000130: 29da 3efa a152 a0bf cc43 076e 2dc7 333f
00000140: b1c8 19db a797 a4bf ae71 fe41 e1b9 adbf
00000150: 0960 1f1b 12b1 a93f eca9 b77c fc43 a3bf
00000160: 7565 89e1 b278 91bf 6cab b0f8 d597 8cbf
00000170: 0791 2535 c1c8 b1bf ed88 9c34 2a9d b13f
00000180: ac99 809b bfe0 7abf 5c51 e906 ecb4 b0bf
00000190: 2070 a601 e9b7 943f 0018 4de3 737d ad3f
000001a0: c604 fe94 9b86 9bbf 4f72 7b50 1fcb a2bf
000001b0: 7272 95b8 ce85 90bf 2731 6b47 4124 bebf
000001c0: c09a 5d99 169f b3bf d248 4302 d85a bd3f
000001d0: 63fc 7a4f 75d7 a3bf 9b42 eb30 86ef c7bf

TranslationVectors f8 [20, 3, 1]
-104.4947206570364 -137.46414267942242 533.3142416615999 -91.72049975435355 -150.34529199932837 525.2819327201886 -93.48336456368722 -157.81482539177654
504.35941476217965 -114.0298621947079 -99.25343843704636 500.2681746644946 -64.89185656040716 -101.71190839144428 502.78808247689744 -83.38267027374341
-100.59187110215632 472.99299063904584 -58.807708780330664 -77.11227811901179 489.28739362721456 -34.14699602559276 -94.44541352920993 477.062911364767
-104.31717771154037 -132.81973554954854 517.874608459238 -91.03937042977124 -101.05120565191731 470.7221417345195 -76.7552229482284 -107.54354782883601
482.3182833068965 -93.34707771760621 -86.49482869924472 533.087385824745 -79.46530605695457 -142.79691858023654 474.0788176529834 -93.19865960365536
-111.6574856662282 521.2051558138774 -78.501530161973 -126.48142183380043 516.6373306923264 -70.35894633492899 -154.69767780252045 519.5762360602944
-76.16648607192245 -141.57793203173978 520.0214153661868 -78.4219790141737 -103.49121491793856 518.5058345368712 -86.48414227949222 -108.49812296038846
502.14363074629557 -107.11764442131238 -98.01781074452154 503.86757609936143
00000000: 20a8 d480 a91f 5ac0 8299 bf41 da2e 61c0
00000010: e6dc 2191 83aa 8040 5f6e 00ab 1cee 56c0
00000020: f295 cea1 0ccb 62c0 0f27 f165 416a 8040
00000030: 3e45 ec71 ef5e 57c0 2e34 b30c 13ba 63c0
00000040: 2e94 b129 c085 7f40 106a 1f43 e981 5cc0
00000050: 76aa d955 38d0 58c0 ec59 8471 4a44 7f40
00000060: ffea 892d 1439 50c0 13c0 36e8 8f6d 59c0
00000070: 340d 5ffc 9b6c 7f40 47b8 75ab 7dd8 54c0
00000080: 5ecd 5437 e125 59c0 fafe 264a e38f 7d40
00000090: 2b1b 5600 6367 4dc0 924d 9090 2f47 53c0
000000a0: 725f 0f2a 9994 7e40 0d48 09c4 d012 41c0
000000b0: c449 bfa7 819c 57c0 89e3 58af 01d1 7d40
000000c0: 8185 bea3 4c14 5ac0 bf15 0c46 3b9a 60c0
000000d0: db49 b832 ff2e 8040 0113 8d0b 85c2 56c0
000000e0: bc16 12f4 4643 59c0 68cd 7de4 8d6b 7d40
000000f0: 19f5 a192 5530 53c0 662a d57c c9e2 5ac0
00000100: bb9f 3cb0 1725 7e40 7f92 7585 3656 57c0
00000110: 3618 fe45 ab9f 55c0 4fdb 56f7 b2a8 8040
00000120: 0a50 0e93 c7dd 53c0 1af6 645b 80d9 61c0
00000130: 949e 4cd6 42a1 7d40 1c2f c5d6 b64c 57c0
00000140: 7d82 c23e 14ea 5bc0 8039 bb28 a449 8040
00000150: 6ce8 f611 19a0 53c0 34f0 859d cf9e 5fc0
00000160: 3b82 d540 1925 8040 8062 0cfa f896 51c0
00000170: 0e1f 6660 5356 63c0 eccd a621 9c3c 8040
00000180: 5f89 32b5 a70a 53c0 43f4 506b 7eb2 61c0
00000190: 3ccb d1db 2b40 8040 5c5e 44b4 019b 53c0
000001a0: 9ff6 b110 70df 59c0 6548 faf2 0b34 8040
000001b0: eb41 e62f fc9e 55c0 5410 203f e11f 5bc0
000001c0: a2e0 c04f 4c62 7f40 fc85 777c 87c7 5ac0
000001d0: 324f adcf 2381 58c0 c7d8 7997 e17d 7f40
